python/models/simple_nn_contrails.pth (torch, 922917 bytes, 5 tensors)

classifier.0.weight f4 [256, 768]
000000 b1 45 b7 3c 94 1d c6 3c 8f 01 83 bc fe e0 20 3d
       0.022372099 0.024184026 -0.015991954 0.03927707
000010 9e f1 74 bc 8f c6 96 3a 6a e6 dc bc 99 3d c7 3c
       -0.014950184 0.0011503267 -0.026965339 0.024321364
000020 55 4a 18 3d fd b2 ec bc e7 03 02 3d 38 2b 07 3b
       0.037180264 -0.028893942 0.031742003 0.0020625126
000030 34 63 a5 3c 33 a6 06 bb 37 35 af 3c 47 90 83 3a
       0.020188905 -0.002054584 0.02138768 0.0010037505
000040 d5 c6 bd 3c 7e 7f 35 3a be 98 c1 bc 33 a2 75 3b
       0.0231661 0.00069236 -0.023632403 0.0037480711
000050 59 bf bd bc b8 7c 2d bc ce 82 fa bb e6 f5 98 3c
       -0.02316253 -0.010588817 -0.0076449877 0.018671941
000060 56 d1 b6 bc ca ec 4e bc c5 a0 74 bc 17 3a 6d bc
       -0.022316616 -0.012629697 -0.014930909 -0.014479182
000070 ef 5b 46 bb 19 3f 27 bd 51 c9 d8 3c 0b d2 1e bd
       -0.00302672 -0.04083166 0.026463183 -0.03877453
000080 36 c3 cf 3c 07 4b 6b 3b 3a 61 38 bc de 8f 79 3c
       0.025361639 0.0035902874 -0.011253649 0.0152320545
000090 51 a9 69 3c 1e fc 0b 3d 3b d1 16 3c 89 94 cf bb
       0.01426156 0.034175985 0.009205158 -0.0063348454
0000a0 7f 5a 7d 3c 4c d4 12 bc 83 9f 8b 3c 4d 3f 26 3d
       0.0154634705 -0.008961748 0.017043835 0.040587712
0000b0 48 6f 90 3c f2 29 36 bc ed bc ae 3c 6b 2e a8 38
       0.017631188 -0.011118399 0.021330321 8.01951e-05
0000c0 db e2 3b 3c 6a 98 7d bc ab 0a f9 bc df 24 b6 bb
       0.011467661 -0.015478233 -0.030400595 -0.0055585946
0000d0 6a 9b dd bc 08 78 be 3c 8c 3d 6f 3c 68 aa 96 3c
       -0.027051646 0.023250595 0.014602076 0.018391803
0000e0 de 9d 75 3b da e6 d1 bb 77 d2 b4 3c d8 67 a2 bc
       0.003747813 -0.0064056935 0.022073014 -0.019824907
0000f0 f9 9c 6d bb e0 56 09 bd 47 e2 89 3c c1 0d 78 bc
       -0.0036256893 -0.033530116 0.01683153 -0.015139998
000100 cf b4 ab 3b 95 2d 49 bc 90 51 f7 3c 45 ae 8b bc
       0.00524006 -0.012278934 0.03019026 -0.017050872
000110 03 e1 e7 bc 1b f7 e8 bc b5 96 1c 3d 69 fd 75 3b
       -0.028305536 -0.028438142 0.038229663 0.0037535077
000120 69 44 f0 3c 87 0b 0e bd 34 eb 04 bd 74 cc e7 bc
       0.029329496 -0.034678962 -0.03245087 -0.028295733
000130 31 89 90 bc d9 dc a3 3c 49 87 97 3c fa 7e f1 3c
       -0.017643543 0.02000277 0.018497126 0.029479492
000140 17 f2 3b bc 85 0b b8 bc 71 e4 32 3c 74 62 ac bc
       -0.011471293 -0.02246643 0.0109187225 -0.02104304
000150 48 7c 64 3c 99 f5 6e bc 2b b2 60 3c 9e 29 16 bd
       0.013945647 -0.014584922 0.013714354 -0.036660783
000160 ef 1c 23 bc ef 25 a3 3b ab dd 2d 3c 92 9f 56 bb
       -0.009955629 0.0049788873 0.010611932 -0.003274892
000170 a6 60 d0 3c f3 cb f7 3c ca 36 08 bd cd b5 60 bc
       0.02543671 0.030248618 -0.033255376 -0.01371522
000180 19 6c 1f 3d 9f 09 82 bc 5e 64 a7 bc 95 20 05 bd
       0.03892145 -0.015873728 -0.020433601 -0.032501776
000190 26 bd a0 bc aa 56 7a 3c 9f a0 13 bc f5 9f 04 bd
       -0.019621443 0.015279451 -0.009010463 -0.03237911
0001a0 b5 36 af bb a6 58 dd bc 48 29 e1 bc ca ef dd bc
       -0.0053470978 -0.02701981 -0.027485505 -0.02709188
0001b0 d3 d7 cd bc b3 4b f0 bc 86 ba f6 3c 01 9b 82 3a
       -0.025127327 -0.029332971 0.030118238 0.0009964408
0001c0 e7 88 6c 3b 1e 8d 20 bd b3 21 00 bd e3 1a 6e bc
       0.0036092342 -0.03919708 -0.031282138 -0.0145327775
0001d0 d6 54 bb ba 3a ad 09 bd 48 6b ad bc a1 fd dd bc
       -0.0014292251 -0.033612467 -0.02116932 -0.027098479
0001e0 d2 83 2a 3c 21 25 93 bc 1d 05 3a bb 2c ba d0 bc
       0.010407405 -0.01796204 -0.0028384395 -0.025479399
0001f0 1e 5d 99 bc 33 95 e0 bc d4 59 cd bb 5f 8a bf bc
       -0.01872116 -0.027414894 -0.006266812 -0.02338141
000200 0b d6 03 3d 90 22 75 bc 82 a2 c3 3c 40 f1 74 3c
       0.03218655 -0.014961854 0.0238812 0.014950097
000210 9b c6 ce bc f6 e4 07 3d f9 2a da ba f9 67 ad bc
       -0.025241187 0.03317734 -0.0016644887 -0.021167742
000220 55 87 11 bd fa 05 f4 bc 38 a5 07 3c 4a 2f 6d bc
       -0.035529453 -0.029788006 0.008279137 -0.014476607
000230 4c e4 5e 3b a3 e0 07 bd fb 2a 07 3d ca 3f 06 bd
       0.0034010587 -0.033173215 0.032999974 -0.032775678
000240 6f 14 54 bc b0 70 96 ba 5a c6 2a 3c 0e e8 be 3c
       -0.012944325 -0.0011477675 0.010423267 0.023304012
000250 b3 43 de 3c 5c af 06 bd 09 e2 8f 3c 4e 04 aa bc
       0.02713189 -0.03288208 0.017563837 -0.020754006
000260 bd f1 2d bc 27 70 05 bd d5 de e4 3c bd 78 aa bc
       -0.010616717 -0.03257766 0.027938286 -0.020809526
000270 9a 00 b9 3c 30 8a f3 3b ce 8e 95 3c a6 b1 9c bc
       0.022583295 0.0074322447 0.018256571 -0.019127678
000280 dc ac 0f 3d 5f 5d c2 3a 79 34 48 3c c5 9c dc bc
       0.03507696 0.0014828852 0.012219542 -0.026930222
000290 16 b6 ae 3c 3e d1 05 bc fb d5 a6 bc 24 a8 19 3d
       0.02132706 -0.008167563 -0.020365706 0.037513867
0002a0 9d e1 22 3b f2 bd 63 bc 0e 0f 86 bc d0 c9 86 ba
       0.0024853714 -0.013900267 -0.0163646 -0.0010283533
0002b0 e8 8a c6 3c 39 ba 89 bc c6 d5 e7 bc 5b 31 e3 bb
       0.024236158 -0.01681243 -0.028300177 -0.006933374
0002c0 4a e0 07 bd 9b 87 4c 3c 3b ee b3 3c 48 24 de bc
       -0.033172883 0.012483503 0.021964183 -0.02711691
0002d0 d9 d0 8d 3c 71 71 ef 3c cf 1b 43 3c f6 29 bc bb
       0.0173115 0.029228898 0.011908486 -0.005742307
0002e0 0c 1f 40 3c d4 1f 5f 3c 26 5c f2 3b 36 d4 c3 bb
       0.011726152 0.013618428 0.007396239 -0.0059762252
0002f0 67 f4 2e bb b8 59 ed 3b ba 3e 46 ba f4 b3 02 bb
       -0.0026695968 0.0072433613 -0.00075624476 -0.0019943686
000300 c5 e6 8b 3c 28 1c bc 3c 59 16 09 3b 3f 87 6a ba
       0.017077813 0.022962645 0.0020917861 -0.0008946545
000310 e6 ab c6 3b db cd 09 bc c5 83 ac 3a 19 b8 fa 3a
       0.0060629724 -0.008410896 0.0013161829 0.0019128352
000320 df 61 dc bc 5a 77 73 bc e1 47 fa 3c 5b 34 50 3c
       -0.026902137 -0.014859999 0.030551853 0.012707795
000330 d2 31 df bb d1 63 77 bc 1e d1 69 bc 0c cb 17 bd
       -0.006811359 -0.015099482 -0.014271049 -0.037058875
000340 c0 83 96 bc 34 a9 df 3b 7f b0 8a 3c 1f f2 20 3c
       -0.01837337 0.0068255905 0.016929863 0.009823351
000350 fe f9 08 bd d1 3c ec bc e5 7c 8a bc 21 90 dd 3c
       -0.033441536 -0.028837593 -0.016905257 0.027046265
000360 4a 92 9e ba 30 ee 8f bc d9 a9 ab 3c 47 4a 5d bc
       -0.0012098041 -0.017569631 0.020955013 -0.013506479
000370 a5 8d db bc 35 fd bd 3c be 78 c7 bc 8e 38 eb bb
       -0.02680094 0.023192028 -0.024349567 -0.0071783727
000380 ae a0 ec bc 73 ec a1 3c 74 54 e3 3c e6 8b d8 3b
       -0.028885212 0.019766068 0.027750231 0.006608474
000390 ea b4 a8 bc 45 4a 2f bd 2d 2e 19 bd 69 15 8e 3c
       -0.020594079 -0.04279544 -0.037397552 0.017344194
0003a0 6a 0f d1 3c 3d 8f 14 3d 01 59 43 3c f3 e0 67 3b
       0.025520045 0.036269415 0.011923076 0.0035381883
0003b0 5b 65 ff bb 2a 0c 09 bd 84 4e cd bc bd 95 e1 bc
       -0.007794065 -0.033458866 -0.025061853 -0.027537221
0003c0 13 35 83 3c d2 08 ca bc b9 2b 73 ba 8d 7f e2 bc
       0.016016519 -0.024662409 -0.00092762295 -0.027648712
0003d0 b0 cf 32 bc 49 99 96 bc 4b 85 c9 bc 73 42 8b 3c
       -0.010913774 -0.018383639 -0.024599692 0.016999459
0003e0 c7 85 91 ba 28 4c 8d 3c 3e d1 9b bc c8 d2 c4 bc
       -0.0011102491 0.017248228 -0.019020673 -0.02402629
0003f0 f1 11 98 39 e1 ae c4 bc 72 e4 10 bc 95 65 26 bd
       0.00029005067 -0.02400917 -0.008843528 -0.04062422

classifier.0.bias f4 [256]
000000 92 33 56 3c 5a 6b 01 3d 3d 29 ad 3c 4e 8a 55 3c
       0.013073819 0.03159652 0.021137828 0.013033463
000010 aa 0a cc 3c 6a 35 5c bc bc 8c 89 3c 34 bd 88 bc
       0.024907429 -0.013440469 0.01679074 -0.016691782
000020 a0 92 88 3a 4d fa 62 bc ff fa ce bb e8 52 c0 3c
       0.0010419674 -0.013853622 -0.006316542 0.023477033
000030 10 2f b3 3c 76 a4 52 bc d2 6d 26 3c ec 19 a3 bc
       0.021873027 -0.012856593 0.010158019 -0.019909821
000040 90 1b 14 3c 74 e4 95 bc 7b c1 fa bc 20 0b d0 3c
       0.009039775 -0.018297412 -0.030609837 0.02539593
000050 eb b5 9b bb d9 f1 22 3d 63 95 ed bc bd f6 03 3d
       -0.004751911 0.039781425 -0.029001897 0.03221773
000060 16 5c 71 3c 10 a4 d4 3c d9 1b 06 bd 03 ce e1 3c
       0.014731428 0.025957137 -0.0327414 0.027564054
000070 39 31 ac 3b 6d 53 88 3c 76 d2 e2 bc e0 d8 e8 bc
       0.0052548912 0.016641343 -0.027688246 -0.028423727
000080 7e 45 c9 bc e4 0e d2 3c b0 b7 d3 bc 1c 3d 19 3b
       -0.02456927 0.025641866 -0.025844425 0.0023382371
000090 02 c7 fb bb b9 70 e8 bb 9d 6b 00 3d 97 88 fb 3a
       -0.0076836357 -0.0070935157 0.031352628 0.0019190487
0000a0 01 44 1d 3d 46 f8 b7 bc df ec 03 3d 32 d9 6f bb
       0.03839493 -0.022457253 0.03220832 -0.0036597964
0000b0 58 3b ef ba 47 79 db 3c 06 48 aa bc e5 9f f5 bc
       -0.0018251939 0.026791228 -0.020786297 -0.02998347
0000c0 8d a2 ed 3b ab 72 b0 bc 26 34 2d bd a7 68 7e 3c
       0.0072520436 -0.021539053 -0.04228606 0.015527881
0000d0 2c 5d 05 bd a6 2c 89 bc 04 a0 15 bc 7e 29 63 3c
       -0.03255956 -0.016744923 -0.009132389 0.013864873
0000e0 f4 00 3d 3b c0 6c b6 bc e1 c6 27 3d cb 55 45 3c
       0.002883968 -0.022268653 0.04096115 0.01204438
0000f0 d0 0c 0e 3c 09 28 fa bc c7 9c ee bc 20 f4 c1 3b
       0.008670047 -0.030536668 -0.029127492 0.0059189945
000100 54 bd d6 bb 44 95 9d bb f6 21 ff 3b fc f1 cf 3c
       -0.0065533314 -0.0048090536 0.007786031 0.025383942
000110 e3 cc 9b bb d1 97 c6 bc 43 66 27 ba 46 bd da 3c
       -0.004754649 -0.024242314 -0.00063857826 0.02670158
000120 43 2f 95 39 ca 73 3c 3b ca c9 23 3c 28 c5 28 3c
       0.00028454707 0.002875554 0.009996841 0.010300912
000130 4e 3b d2 3c 3b bb 4d bc 15 da 3e 3c 91 06 8c bc
       0.025663044 -0.012556846 0.0116486745 -0.017092975
000140 b4 fd a3 3b d2 63 8e 3b 45 79 18 3d 90 65 f5 3c
       0.005004609 0.0043453956 0.037225027 0.029955655
000150 a6 00 04 3d 16 c5 e0 bc 57 d9 fa bc 30 18 1b bc
       0.03222718 -0.027437728 -0.030621214 -0.009466216
000160 d0 eb 08 bb 55 82 6f 3c 42 90 99 bc 54 c9 ef 3b
       -0.0020892508 0.014618476 -0.018745545 0.0073177014
000170 cc 25 ec bc 2c 24 d8 3c 12 14 72 bc 77 1c 00 bd
       -0.028826617 0.026384436 -0.014775293 -0.031277146
000180 ee e6 26 3b 53 09 ae 3c ce ea 0c 3c a3 49 03 3d
       0.0025467235 0.02124468 0.008600904 0.032052647
000190 72 57 70 bc 7e b1 fe 3c 8d 9a 02 bb cf a5 8b 3c
       -0.014669286 0.031090494 -0.0019928545 0.017046837
0001a0 e8 15 00 3c 73 4e 47 bb 3d 76 6a bc 50 60 e1 bb
       0.007817723 -0.003041175 -0.014310417 -0.0068779364
0001b0 3f 93 e9 ba 57 ad bc 3c be 96 df 3c 72 1e 8a 3c
       -0.0017820372 0.023031874 0.02729356 0.01686022
0001c0 c9 d4 1e 3d 2e 8e 13 3c 3e 30 a1 bc c5 26 89 3b
       0.038777146 0.009006066 -0.019676324 0.00418553
0001d0 41 96 67 3b 0d 4d ad 3c ae 5a b7 3c 53 73 dd bb
       0.003533736 0.021154905 0.022382107 -0.0067581325
0001e0 ae b6 73 3b d9 f4 f3 3b 10 3d 22 bd 6a ec 52 3d
       0.0037187743 0.0074449596 -0.039609015 0.051494993
0001f0 06 fd af bc 8d 2d da bc d2 da 1d bd 07 ba 1e 3d
       -0.021482956 -0.026633048 -0.03853876 0.03875163
000200 c0 a7 e3 bb 22 18 c7 bc a9 35 03 3d 25 15 ac 3c
       -0.0069474876 -0.0243035 0.032033596 0.021006176
000210 0e 30 0a bd c0 82 3d 3c 6d d6 03 3d 18 30 f4 3b
       -0.033737235 0.011566818 0.032186914 0.0074520223
000220 58 55 ce 3c c1 dc 7e bc c7 71 38 3a 7f 63 3b 3c
       0.02518718 -0.0155555615 0.0007035997 0.011437296
000230 d1 31 eb 3c 40 0a 04 3d 3d 3d 19 3d b3 4e a3 bc
       0.028710278 0.032236338 0.037411917 -0.019934988
000240 bc f9 66 3c 20 1f 91 b7 5f bb d1 3c b5 73 af 3b
       0.014097627 -1.729984e-05 0.02560204 0.0053543695
000250 c5 97 31 3d c1 e5 0a bd 14 58 fb bc 45 82 9f 3c
       0.04335763 -0.033910517 -0.030681647 0.019471297
000260 0b b6 b6 bc 6b cb d9 ba 35 4f db 3c e8 85 a2 3c
       -0.022303602 -0.0016616409 0.026771167 0.019839242
000270 c1 f7 12 3c 6a bd a9 3c d8 86 f1 bb 56 fe 1d 3d
       0.008970202 0.020720202 -0.007370811 0.03857263
000280 33 66 0c bc 81 7d 42 bc 33 e3 56 bc ec 19 6d bc
       -0.008569288 -0.011870743 -0.013115692 -0.014471512
000290 25 97 09 bd 95 9e 6a bc 91 b4 ed bc bb 09 50 bc
       -0.03359141 -0.014320035 -0.029016765 -0.012697632
0002a0 21 6d 1b 3d 89 43 af bc 06 43 f6 bb 48 32 55 bc
       0.03794587 -0.021394508 -0.007515314 -0.013012476
0002b0 b5 ba e6 3b 37 45 d8 bb 6f 55 d7 bc f4 40 cc 3b
       0.0070413 -0.006600048 -0.026285855 0.006233329
0002c0 ec 45 e3 3c b0 55 8a bb 6d 9d 3f bc fa 96 98 bb
       0.027743302 -0.0042216405 -0.011695248 -0.0046566697
0002d0 11 9e fe 3a 35 55 2a 3d c7 ee d2 bc 99 0c ee bc
       0.001942577 0.041585166 -0.025748624 -0.029058741
0002e0 50 30 23 3d c6 d8 97 bc 0e 4d 1d 3c 46 cb e3 bc
       0.039840996 -0.018535983 0.009600891 -0.02780689
0002f0 1d f6 e7 3c 0b 03 15 bc fb ec 7b bc 94 98 97 bc
       0.028315598 -0.009094964 -0.015376325 -0.018505372
000300 19 33 0b 3d a1 a9 cc bc ec fd dd 3c 07 18 88 bc
       0.033984277 -0.02498323 0.027098618 -0.01661302
000310 a0 93 a3 3c bd ac 92 3c c4 4b 37 3d fe 7e 18 bc
       0.019967854 0.017904634 0.04474999 -0.009307621
000320 f5 25 00 bd 97 83 54 3c c5 61 1f bb 9e 86 80 3b
       -0.0312862 0.012970827 -0.002431975 0.0039222976
000330 07 fd 35 bc 6d 56 3b bc 93 f2 2d 3b 1c 62 0f bd
       -0.01110769 -0.01143418 0.002654229 -0.035005674
000340 a5 14 10 3d 88 3a b2 3c 4b 1d 16 bc cc de 9f bc
       0.03517594 0.021756425 -0.009162257 -0.019515418
000350 07 f4 af bc 15 cb 91 3c 80 ed 77 bc 86 ed 65 3b
       -0.021478666 0.017797032 -0.015132308 0.0035084202
000360 2e 1c d5 3b 22 b7 40 3c 97 0a 47 bc ac 16 03 3d
       0.0065036034 0.011762412 -0.012148521 0.032004043
000370 65 34 8b bc 83 75 02 3d b1 65 77 bc 7d 09 6c bc
       -0.016992757 0.03185035 -0.015099929 -0.014406559
000380 2e 45 be bc 13 06 87 bb 08 62 3c bc 49 42 82 3c
       -0.023226347 -0.004120597 -0.011497982 0.015900748
000390 b7 cd 06 bc cc e3 c8 3c 00 51 3d bc e8 62 d0 3c
       -0.008227757 0.024522685 -0.011554956 0.025437787
0003a0 d5 78 93 3b db ef 13 bd 32 19 d2 bc fc 38 71 bc
       0.0045004883 -0.036117416 -0.02564678 -0.014723059
0003b0 45 b8 d1 bb f9 56 3a 3b e8 7d 19 bc a5 b2 ea bb
       -0.0064001405 0.0028433187 -0.009368397 -0.0071624094
0003c0 88 5d 94 3b be 31 57 3a 95 a1 05 bd 91 8d 08 bd
       0.0045277514 0.0008209011 -0.0326248 -0.033338133
0003d0 0e f1 51 3c 7b c7 a1 3b 33 1c 7f bc c2 2e 20 3c
       0.01281382 0.00493711 -0.015570688 0.009776773
0003e0 c6 bd bf b8 1f 8e cd 3b cd 84 09 3d f5 c5 3d 3c
       -9.142938e-05 0.0062730457 0.033573914 0.011582841
0003f0 0b d5 b5 3c 7d 5b 0b bc be 00 14 3d f5 1e e0 3b
       0.022196313 -0.008505699 0.03613352 0.006839628

classifier.3.weight f4 [128, 256]
000000 91 e9 9a bc 4e 52 4e 3c 67 27 a7 3d 5a fc 5e 3c
       -0.018910201 0.012592865 0.08161812 0.01360997
000010 b1 00 e9 bc b0 84 85 3c 71 ca 49 3c 97 09 d4 3c
       -0.028442713 0.016298622 0.012316332 0.025883479
000020 93 bd 92 3d 8f 7a 98 3c f2 78 19 3d 70 17 41 3d
       0.07165065 0.018613128 0.037468858 0.047141492
000030 5a 77 19 bd 40 3c 4b 3a 07 5e 0a bd bd ab 97 bc
       -0.03746734 0.00077528134 -0.033781078 -0.018514508
000040 22 16 3d 3d ee f4 ae bc 0d 45 8e bd 88 a0 44 bc
       0.046163686 -0.021357026 -0.06946764 -0.012001164
000050 f8 9a 21 3c 52 c0 26 3d 08 17 f7 bc a8 c4 19 3d
       0.009863608 0.040710755 -0.03016235 0.03754106
000060 64 bf da 3c 98 bd af bb 8f 00 d9 bc db d1 d9 3c
       0.02670259 -0.0053631775 -0.026489524 0.026589325
000070 e7 b8 51 bd 01 f6 82 bb 0b ce 21 bd 79 2c 43 bc
       -0.051201727 -0.003996611 -0.03950314 -0.011912459
000080 da a7 b4 bb 38 87 4c 3d 59 63 ec bc fd 84 7c 3d
       -0.0055131735 0.049933642 -0.028855966 0.061650265
000090 60 53 d1 3a e7 35 15 3d b0 4f 7a bd e1 b9 02 3c
       0.0015970282 0.03642836 -0.061111152 0.007978887
0000a0 af 2b 0e 3d 4f 7d a8 3c fd 4e 71 3d 18 00 39 3d
       0.03470963 0.020567564 0.05891322 0.045166105
0000b0 9a 90 39 bd 68 0e f2 3b 1a 3b 8f 3c 9a 60 94 3d
       -0.04530392 0.0073869713 0.017484237 0.07244988
0000c0 59 c3 81 bc a0 fc 42 3d 65 12 f5 3c 98 3d f5 3c
       -0.01584022 0.047604203 0.029915998 0.029936597
0000d0 ee 2e 50 3c 1b 6b 9d 3c 89 79 39 3d e9 22 93 3d
       0.012706501 0.01921611 0.04528192 0.07184393
0000e0 3f a6 9c bd 2b 67 8a 3c f0 8e a2 3c a4 6b 14 bd
       -0.076488964 0.016894897 0.019843549 -0.036235467
0000f0 fa 48 f0 3a d1 3b 13 bc b6 cd 9e 3d 95 5c 46 bd
       0.0018332296 -0.008986429 0.0775408 -0.048428137
000100 af 09 89 bd e5 db 1e bd 60 99 57 3d a4 78 78 bd
       -0.066913 -0.038783927 0.052636504 -0.060661927
000110 00 c8 a0 bc 58 d3 2f 3c 0d af b4 bc 22 2a 8d 3d
       -0.019626617 0.010731541 -0.022056127 0.06892802
000120 b8 04 c5 bc da 60 21 3b 70 94 60 3d eb 31 b4 3c
       -0.024050102 0.0024624378 0.05482906 0.021996459
000130 39 95 57 bd f5 a3 03 3d cb 09 04 bd 8e 87 4e bc
       -0.052632544 0.032138783 -0.0322359 -0.012605561
000140 a7 68 03 3c 29 b5 7f 3d 37 20 8c 3d c8 c9 0d 3d
       0.0080205565 0.062428627 0.06842082 0.03461626
000150 68 01 1a bd a6 01 4f 3d db 6f 3f 3d 8f 22 65 bc
       -0.037598997 0.05053868 0.046737533 -0.01398529
000160 81 d0 c7 bc ff 5c eb 3c 8c 37 47 3d 57 ac 51 bd
       -0.024391415 0.028730867 0.048636958 -0.051189747
000170 ef 73 1c bd 06 86 97 3d b5 de 52 3d 98 62 f5 bc
       -0.0381965 0.0739861 0.05148192 -0.02995424
000180 9f d4 dd bc d5 3d 8c 3d 89 d9 15 3d c5 6e 54 3d
       -0.027078925 0.06847731 0.03658441 0.05186345
000190 f6 56 20 bc b0 e8 03 3d 42 87 7d bd 37 f5 98 3c
       -0.009786358 0.03220433 -0.06189657 0.018671615
0001a0 5a 29 d6 bc 7a 3c 03 3d a6 75 25 3d ff b6 c7 bb
       -0.026142765 0.032040097 0.0403954 -0.006094813
0001b0 2b 10 03 bc 95 86 1d 3d 6b 86 46 3d 70 7c 5f 3d
       -0.00799946 0.038458426 0.048468035 0.054562032
0001c0 ed 32 98 3d 3a 40 fa 3c cd 89 0f bd 64 44 9d 3c
       0.07431588 0.030548204 -0.035043526 0.01919765
0001d0 46 56 f2 3c 3f 82 54 bc 31 c2 10 3c 84 d2 27 bd
       0.029582154 -0.012970506 0.008835361 -0.040972248
0001e0 a8 cc 9a bc f0 49 c3 bb 6f a2 f9 bc 6f 5d 4b 3d
       -0.018896416 -0.005959742 -0.030472962 0.049649652
0001f0 5a 28 22 3c 58 b9 65 bd ec e2 16 bd db c2 a3 bc
       0.009897316 -0.05608496 -0.036837503 -0.019990375
000200 2a 1e 9c 3d b8 07 1f bd f2 fc 7f 3d f2 74 07 3d
       0.07622941 -0.03882572 0.062497087 0.033070512
000210 1b c0 29 3d 7b 16 92 bd a0 5e ed 3b 45 4f 37 3d
       0.04144297 -0.07133194 0.007243946 0.04475333
000220 46 e3 b8 3c b6 3e 99 3c 6f 62 cd 3c 2e cb 3f bc
       0.02256931 0.01870666 0.02507135 -0.011706157
000230 d0 d5 32 3d 2a 7e 49 bd 3e 02 65 3d ac 01 22 bd
       0.04366094 -0.049192585 0.05591034 -0.039552376
000240 14 a0 8b 3c 55 73 68 bc 20 87 85 3a d9 ea d7 bb
       0.017044105 -0.014187654 0.0010187365 -0.0065892753
000250 10 f9 0d bc f0 a9 bf bc 83 c9 8e 3c a4 e7 37 3c
       -0.008665338 -0.023396462 0.017430073 0.011224661
000260 4c 71 12 bd 6b 4d c0 bc 2d 55 87 3b 31 39 e4 3c
       -0.03575258 -0.023474416 0.004130027 0.027859302
000270 15 fc b2 bc 7c fc 71 bc c9 ef a1 ba 57 23 d4 bc
       -0.021848718 -0.01476967 -0.0012354787 -0.025895758
000280 40 c0 85 3d 7d ca 49 3d eb 67 34 3d 40 df 50 bd
       0.065308094 0.049265373 0.044044416 -0.050994158
000290 c6 fb 75 3d e3 87 8b bc 05 d2 01 bb 3a 62 9f 3d
       0.060054563 -0.01703257 -0.001980902 0.07782407
0002a0 80 2e 7a 3d 44 c5 24 3c b6 16 1a bc 09 b2 3a 3d
       0.061079502 0.010056797 -0.009404829 0.045579944
0002b0 61 ab 84 3c 06 e9 fd 3c 4e 1d 8e bd 9b 48 2f 3d
       0.016195001 0.030994903 -0.06939183 0.04279385
0002c0 94 dc 58 bd c2 0c 5c bd 20 33 85 3c fd c1 f0 3c
       -0.052944735 -0.053723104 0.01625973 0.029389376
0002d0 16 30 57 3b 32 e8 28 bc 99 21 44 3c d2 32 12 3d
       0.0032835058 -0.010309266 0.011970901 0.035692997
0002e0 19 7a 31 3d 8c dc 87 3d 84 4d e2 3c 11 fb 8b 3d
       0.043329332 0.06633863 0.027624853 0.068349965
0002f0 43 32 96 3d f2 8e 46 bd ae 37 c8 bc d7 b7 7c bd
       0.073338054 -0.048476167 -0.024440613 -0.06169876
000300 54 88 15 bd b4 69 5c bd 55 02 6b bc 4d 66 62 bd
       -0.036506966 -0.053811744 -0.014343818 -0.055273343
000310 fe 79 5a bd f0 21 54 bc d3 75 c0 bc 61 57 88 bd
       -0.053338997 -0.012947544 -0.023493683 -0.06657291
000320 f7 a7 2b bd c8 e3 d6 ba 3d 65 7e 3d bf cb c6 3c
       -0.04190823 -0.0016394788 0.062108267 0.024267076
000330 fb 22 c9 bc 5e 3b d6 3c a9 0d 6e bc 11 6c c3 bb
       -0.024552813 0.026151355 -0.014529624 -0.0059638103
000340 b2 cf ca bb 4c 6e 43 bd 96 4e 61 3d 39 3a 53 bd
       -0.00618931 -0.04771261 0.055006586 -0.051569197
000350 6d 7e d9 3c 64 d8 43 3d 7e 8e f3 bc e0 58 6c bc
       0.026549542 0.047813788 -0.029731032 -0.014425486
000360 a3 d0 a7 3d 68 5c 37 3d 6a 41 c5 3c 57 ee 3a 3c
       0.08194091 0.04476586 0.024079043 0.011409364
000370 fc 1f 13 bd cf d2 38 3d 8e dc 41 3c 42 02 9f 3c
       -0.035919175 0.045122918 0.0118323695 0.019410256
000380 80 00 5b 3d 92 39 2f bd d7 e5 2c 3d 02 b2 2a 3b
       0.053467274 -0.042779513 0.04221138 0.0026046042
000390 23 f4 1f 3d 2a af 1e 3d 6b 20 39 bd e1 56 fa 3c
       0.039051186 0.03874127 -0.04519693 0.030559005
0003a0 3a 5b 37 3d f4 2a 51 bd bd ab f1 bc 0d d7 ae bc
       0.044764735 -0.051066354 -0.029500837 -0.021342779
0003b0 75 29 56 bb bf 3b 10 bc fc 80 ff 3c 8a d6 9b 3d
       -0.003267852 -0.008803307 0.031189434 0.076092795
0003c0 d7 06 28 3d 99 0c 90 bd 6f db a6 bb 5b 80 a3 bd
       0.041022148 -0.07033653 -0.0050920765 -0.07983466
0003d0 5b 30 1c 3d 7d 48 cd 3c 4e 8d 4e 3d b6 ac c0 3b
       0.038132053 0.02505898 0.050427727 0.0058799637
0003e0 c3 57 5e 3d 11 25 44 bc e8 39 1d 3d af 91 b5 bc
       0.054282915 -0.011971728 0.0383853 -0.022164194
0003f0 0f 70 a0 3d bf 20 1b bd 14 57 3d bd f1 61 ea 3b
       0.078338735 -0.037873026 -0.046225622 0.007152789

classifier.3.bias f4 [128]
000000 64 f4 37 3d 7a cc bb bc e0 e3 46 3c 72 37 59 3d
       0.044910803 -0.02292465 0.012139291 0.053031392
000010 33 5e 20 3d ed 18 28 3c 88 13 72 bd e7 a2 86 bc
       0.039152335 0.010259849 -0.059100658 -0.0164351
000020 e0 a3 65 3d b0 8b 21 bb 86 08 53 3b 9c 78 d9 3b
       0.056064487 -0.002464991 0.0032201125 0.006636692
000030 40 c6 cd bc ad 83 f5 3b de f8 16 bc a5 1c 72 3d
       -0.025118947 0.0074925036 -0.009214608 0.05910935
000040 13 61 54 bd 53 ae bb bb 29 39 50 3d 78 86 aa 3b
       -0.05185039 -0.005727568 0.050835762 0.005204018
000050 58 1b 8e 3b 00 2b c4 bc 74 bc f6 bc c7 8f ae 39
       0.0043367557 -0.023946285 -0.030119158 0.0003329499
000060 f4 cd 06 3d 32 7f aa bb df 11 fb bc 5b c1 b5 3c
       0.032911256 -0.005203151 -0.03064817 0.022186926
000070 8e ec 3c bc ab b0 2b 3d 25 50 56 3c 7a d3 5c 3c
       -0.011531008 0.04191653 0.013080631 0.013478154
000080 9e 2f 45 3d e1 36 64 3d 8b 8f 1a 3c 1a 96 58 3d
       0.048141114 0.0557164 0.009433637 0.052877523
000090 d0 97 e1 3b f5 b0 b6 bc 9b 2a 37 bd 55 3e 1f 3d
       0.0068845525 -0.022301177 -0.044718366 0.038877804
0000a0 f7 14 a5 3c a8 54 31 3d 2b c2 f2 3c 0e 23 f0 bb
       0.020151598 0.043293625 0.029633602 -0.0073283976
0000b0 f2 cb 33 3d 9b dc 6f 3d 95 13 0c bd 9f 09 90 3c
       0.04389567 0.058559995 -0.034198362 0.017582713
0000c0 82 d4 74 3d 3f f1 9b 3b bf a6 54 3d 9e 7a 3d 3d
       0.059772976 0.0047589834 0.051916834 0.046259515
0000d0 87 a3 70 3d 84 df 75 3d df ef 59 3d 57 26 c8 3c
       0.0587497 0.060027614 0.053207275 0.024432344
0000e0 a5 a5 f5 bb 3f fa b5 bc 4d ec 92 bc 8f e3 a1 3b
       -0.007496553 -0.022214053 -0.017934943 0.004940457
0000f0 c0 11 20 3d c0 e9 d8 bc cd 4f 71 bc 29 9e 12 bd
       0.039079428 -0.026478648 -0.014728499 -0.035795365
000100 59 5d 32 bb 1d f5 1b bd 73 1e 42 3d f0 9c 35 3c
       -0.0027216284 -0.038075555 0.04739232 0.01108478
000110 91 de f8 bc 22 db 89 3d 93 71 37 bd 2e 44 6c 3d
       -0.030379565 0.067312494 -0.044786047 0.05768221
000120 93 7c 2c bc 03 a5 66 3d dc 87 04 bc a3 57 0e 3d
       -0.010527748 0.05630971 -0.008089032 0.034751546
000130 14 29 42 3d ef 53 81 3d 9d 8a 9c bc 0d 1f 24 3c
       0.047402456 0.06314837 -0.019109065 0.010017169
000140 ed f1 c2 3c 16 76 02 3b 5f 61 b7 bc f4 ac 5f 3c
       0.023797 0.001990681 -0.022385297 0.013652075
000150 43 5d 02 3d a3 ed 92 3c 0c 3e 51 3d 9e 1b 12 3d
       0.031827223 0.01793558 0.051084563 0.03567087
000160 4f 2a 98 bc e0 e1 53 3d 94 d9 c2 b9 ea dd 33 ba
       -0.018574862 0.051729083 -0.00037164672 -0.0006861376
000170 65 0c dd bc d4 45 e2 bc 1f 23 79 bc a6 11 30 3d
       -0.02698345 -0.027621187 -0.015206127 0.04298558
000180 98 0f 19 bd e2 66 60 bc fd 8b 60 3d a9 d9 bc bc
       -0.037368387 -0.013696404 0.054821003 -0.023053007
000190 25 2e 36 bd 78 89 99 bc 7f 80 ac 3c 1b 5f 00 bd
       -0.0444776 -0.018742308 0.021057365 -0.0313407
0001a0 c3 86 c1 bc 3e b8 eb 3c 40 af 1e bd 72 cc 30 3d
       -0.02362383 0.028774377 -0.03874135 0.043163724
0001b0 ec 25 32 bd 5c e6 51 3d 67 82 58 bd 88 6d 6f bd
       -0.043493196 0.05124508 -0.052858736 -0.058454067
0001c0 28 39 57 3d 0a fa 43 bd 96 13 e6 b9 ff 11 4a bc
       0.052544743 -0.047845878 -0.0004388361 -0.012333392
0001d0 88 6f 42 3d 77 8c 26 bd a4 c2 45 3d 63 b1 6e 3d
       0.047469646 -0.0406613 0.048281327 0.058274638
0001e0 20 4d 09 bd 44 0d 7d bd d7 8b 36 3a 7e f0 fb 3c
       -0.033520818 -0.06178023 0.0006963587 0.030754324
0001f0 bf a2 43 3d 72 e7 84 3d fd 58 d7 3c 78 e8 06 bd
       0.04776263 0.06489457 0.02628755 -0.032936543

classifier.6.weight f4 [1, 128]
000000 59 f6 af bd 40 29 95 bb d2 96 e4 bc be a2 35 bd
       -0.08591909 -0.0045520365 -0.027903948 -0.044344656
000010 da e1 26 3d ff 20 2c bd 6c ed b6 3a 4b 44 20 bd
       0.040742733 -0.042023655 0.0013956255 -0.03912763
000020 b3 bb c4 bd 19 d8 5a 3d 64 9d a8 bc 43 5d b1 bd
       -0.09606113 0.053428743 -0.020582862 -0.086603664
000030 1a 11 3f bd a0 17 79 3d f1 6f a0 3d 0d be ad bd
       -0.04664717 0.060813546 0.07833851 -0.08483515
000040 b6 75 cc 3d ed 2e 41 3d 4b 09 c4 3d d7 53 1b bd
       0.09983389 0.047163893 0.09572085 -0.037921753
000050 7d b9 77 3d 3d e4 c5 3d 3a 7e bc bd 46 4e dd bb
       0.06047963 0.096626736 -0.09203763 -0.0067537157
000060 2e 31 a7 3d de 07 b4 3c 7c e6 bc bd 8f d5 e4 bc
       0.08163677 0.021976408 -0.09223649 -0.027933864
000070 46 0b 87 3d d4 0c 10 3d 63 33 1c 3d 83 0e 88 3d
       0.06593947 0.035168484 0.038134944 0.06643393
000080 0b 38 e0 3d 5e e6 e2 bb 62 fa 21 bd 3b 52 60 bd
       0.10948189 -0.0069244346 -0.039545424 -0.05476592
000090 37 8f 4b 3d 73 6b 39 bd c7 5f 8c 3d 50 a0 67 3d
       0.049697127 -0.045268487 0.068542056 0.05654937
0000a0 5f 24 1c 3d ca 5c b1 bd 58 03 59 bd 72 a1 2d bd
       0.038120624 -0.08660276 -0.052981704 -0.042390294
0000b0 7b d4 b3 3d a0 a6 89 3d 3b 92 a1 bd b7 87 98 3d
       0.08780762 0.06721234 -0.078892194 0.074477606
0000c0 b2 e1 79 3d 9a c5 5f bd 38 16 d7 bd 21 d3 44 3d
       0.061006255 -0.054631807 -0.10502285 0.04805291
0000d0 a3 9b c5 3d 67 6f 48 3d 14 3a 94 3d 53 b0 b7 3c
       0.09648826 0.048934367 0.0723764 0.022422945
0000e0 39 b1 39 bd fc 2e 66 3d 81 4a 88 bd ac 57 5e bd
       -0.04533503 0.05619715 -0.066548355 -0.05428283
0000f0 c7 a8 9e bd d1 84 02 bd 91 af 7d 3b 03 25 ad bc
       -0.077470355 -0.031864945 0.0038709382 -0.021135813
000100 d3 2a a2 3d 72 54 b7 3d f1 91 18 3d 2e de 83 bd
       0.07918324 0.089516535 0.037248556 -0.06438862
000110 51 8d 19 3d b8 1b a4 bd 98 ee 9c 3d d7 11 c7 bd
       0.037488285 -0.080130994 0.07662696 -0.097201996
000120 0f 49 ca 3d b3 14 5e 3d 73 6f d9 bd 08 0e a3 bd
       0.09877216 0.05421896 -0.106169604 -0.079616606
000130 5b 0e cf bd a8 89 b3 3d b8 14 ab bd 94 5f 8d bc
       -0.1011016 0.0876649 -0.08353561 -0.01725749
000140 2d 6e b0 bd 13 bf 09 3d 82 a5 66 3d 5e e1 6e bd
       -0.08614764 0.03362949 0.056310184 -0.058320396
000150 1e 8a a3 3d e0 be 36 bd 9c 4b 4f 3d 90 09 e0 3c
       0.07985328 -0.044615626 0.050609216 0.02734831
000160 bf 83 1d bd 15 54 d7 bc a7 a7 83 bd b9 5d 3a 3c
       -0.03845572 -0.02628521 -0.064284615 0.011374884
000170 6c b2 68 3b 62 f8 00 3d 82 ca e1 bc 4b 8b cd bd
       0.0035506738 0.031486876 -0.027562384 -0.10036334
000180 a5 f9 9f bc d9 78 cf 3d e7 dd 6f 3d 42 9a 83 bd
       -0.01952822 0.10130472 0.058561232 -0.06425907
000190 d6 e8 88 bd 0d 77 be bd c4 cc 21 bd 87 1a 2a bd
       -0.06685035 -0.09300051 -0.03950192 -0.041529205
0001a0 b2 34 87 bd 2e 5c a4 3d b9 d9 3c bd 56 d9 22 bd
       -0.06601848 0.080253944 -0.046106074 -0.03975805
0001b0 9f b9 84 bd 63 fe b7 bb ab 85 bd bd e0 3b bb bc
       -0.06480717 -0.005615042 -0.09254011 -0.022855699
0001c0 86 65 be bd 8c 6a 03 3d 84 29 c9 bd 7f 86 5a 3c
       -0.09296708 0.032084033 -0.098223716 0.01333773
0001d0 7a c5 9b bc b0 87 90 bd fa ad 50 3d 54 2c c3 3d
       -0.019015063 -0.0705713 0.050947167 0.09529939
0001e0 6b 26 9a bd 6b 57 cb ba 92 ca 8b bd 8e 9d 07 3d
       -0.07526859 -0.0015513723 -0.068257466 0.03310924
0001f0 71 7f 8b bd 46 84 87 3d d5 8d 05 3d 83 92 21 3d
       -0.06811417 0.06617026 0.032605965 0.039446365
